nutritionapp/static/models/data3.pth (torch, 44927 bytes, 6 tensors)

l1.weight f4 [16, 494]
000000 e1 14 aa 3d b2 04 11 3f 1c 1b 2a 3e 0d 95 89 3e
       0.083047636 0.5664779 0.16611904 0.2687153
000010 db 97 bd 3e f7 3a 7c 3e b0 2e 11 3f 2b b6 4d 3f
       0.3702992 0.24631868 0.56711864 0.8035609
000020 79 e5 72 3f 28 1c a0 3e 84 a4 1f 3f 2f 2e 8f 3f
       0.948814 0.31271482 0.62360406 1.1185969
000030 cd 32 99 3e e7 a2 d2 3e bc 9f 76 3b 92 c6 ab 3d
       0.2992157 0.4113991 0.003763183 0.08387484
000040 a8 04 1f be 76 38 5e 3f b0 1b 25 3e 29 ee 49 3f
       -0.1552912 0.868049 0.16123843 0.7887903
000050 7b 4a 88 3e f7 4f ff bd 64 cb 70 3e fe d7 11 3e
       0.26619324 -0.12466424 0.23515087 0.1424255
000060 cf cb ff 3e d7 cc 42 3e a5 9e 2f bf 65 34 a2 3e
       0.4996018 0.19023453 -0.6860145 0.316806
000070 f3 60 4e 3e 3b ca 55 be 73 11 9b 3e 80 c4 19 3e
       0.2015417 -0.20877926 0.3028675 0.15016365
000080 5e 3c 37 3f 8e 74 18 3e db bb 9f 3d 71 70 9a 3e
       0.7157649 0.14888212 0.077995025 0.3016391
000090 ad e4 38 3f 39 75 cf 3e 95 6f 01 40 15 a9 b1 bb
       0.7222393 0.4051912 2.0224354 -0.0054217675
0000a0 8b e9 48 3f 64 be bb 3e b6 b7 2d 3f fc 09 3d 3e
       0.7848136 0.36668694 0.67858446 0.1846084
0000b0 ab da 23 be e5 50 4a be 17 b5 c5 3e 43 17 36 be
       -0.16001384 -0.19757421 0.38614723 -0.17782311
0000c0 37 66 93 3e 48 7a 10 3f 58 4d 02 3e fa 28 0d be
       0.2878892 0.56436586 0.12724817 -0.13785163
0000d0 89 6e 1b bd 61 dc 4d 3e 97 b2 2e 3d c2 2a 05 bf
       -0.03794721 0.20103599 0.042650785 -0.5201837
0000e0 43 49 e7 3e f3 fd 2b 3f 22 3c 8f 3e 91 db 78 bd
       0.45173082 0.6718437 0.27975565 -0.06075627
0000f0 e3 27 21 3f da a3 eb 3e 9c 9a 71 be db f1 36 3e
       0.6295149 0.46023446 -0.23594135 0.17865698
000100 50 a6 ce 3e c4 f1 34 3e 79 ce 2f 3e 4c 4e a5 3c
       0.4036126 0.17670351 0.17168607 0.020178936
000110 82 80 8b 3e 78 f3 ac 3e d8 29 1d 3e 4a 54 cb 3e
       0.2724648 0.33779502 0.15347993 0.39712745
000120 c4 0f 9b 3f 50 4c 5c 3f 9b 1d d9 3f 1d 62 a3 3e
       1.2114186 0.86053944 1.696216 0.31910792
000130 ce 72 dd ba 7a 89 d4 3e a7 0c b8 be 0d 4c 08 3f
       -0.0016895176 0.41511136 -0.35947153 0.53241044
000140 29 62 aa be 6a c8 f3 3e 4d d5 8f bc ed 1c 30 bf
       -0.33278015 0.4761384 -0.017557764 -0.6879414
000150 1f 8d e4 3e 76 f1 c6 3d 0e c3 ab 3f bb 08 c3 3e
       0.44638917 0.09714024 1.3418901 0.38092598
000160 7b 03 1a 3f 7e 42 c2 bd 22 35 f8 3e 54 71 e8 3e
       0.6016156 -0.09485339 0.48478037 0.45398962
000170 35 5b 58 3e 5d 2b 74 3d 35 9b 12 3f 75 85 bb 3d
       0.21128543 0.059611667 0.5726808 0.09156314
000180 22 68 b6 bd fd 88 ac 3e 8f 27 06 3f 3f 09 ac 3e
       -0.089065805 0.33698264 0.5240411 0.33600804
000190 57 1b d8 3d b9 4e 6a 3e d6 60 58 3e b5 59 d7 3e
       0.1055209 0.22881593 0.2113069 0.4206063
0001a0 b1 7c 3d 3e 85 f0 6a bc ef ca dc 3d 62 e6 93 3c
       0.18504597 -0.014339571 0.10780894 0.018054191
0001b0 51 d0 ce 3e 9f 36 e8 3e ce ae 2a bc b6 62 9c bd
       0.40393308 0.45354173 -0.010417653 -0.07636015
0001c0 62 44 b5 3e c6 54 35 3f 2e a2 93 3d 73 dd 92 3e
       0.35403734 0.7083248 0.07208668 0.28684577
0001d0 44 b9 05 be 2e ec c7 3e d8 9e 9a bd ce 62 20 bd
       -0.13058954 0.39047378 -0.07549828 -0.039156727
0001e0 35 a9 d2 bd 52 a0 5e 3e b5 07 84 3f 07 17 00 3f
       -0.1028618 0.21740845 1.0314852 0.50035137
0001f0 6b 8e 47 3e 0b 57 03 3f 98 7b 9d 3f 96 07 4d 3c
       0.19487922 0.5130469 1.2303343 0.012514016
000200 a0 e3 e4 bd 7e 18 25 3e a1 99 4e be 2d e7 a5 3b
       -0.111762285 0.16122624 -0.20175792 0.0050629587
000210 1d ce 83 3e 1b 4f 73 3d f1 dc c3 3e d0 79 65 bd
       0.2574319 0.059401613 0.38254502 -0.056024373
000220 c2 26 91 3e 01 ba 2c 3e d3 4c 96 3e a2 4e 6e bd
       0.28349882 0.1686783 0.29355487 -0.05818046
000230 19 b4 78 3e bd b3 ac 3e ab 6a d2 3e d5 c8 62 3e
       0.24287452 0.3373088 0.41097006 0.22146924
000240 21 51 0d 3f 52 1a 2e 3e 3d c1 63 3e b2 b9 15 be
       0.5520192 0.17002228 0.22241683 -0.14621618
000250 cf ba 5e 3d c8 54 ee 3d dd 26 a1 3e 27 23 46 3f
       0.054377373 0.116372645 0.31474963 0.7739739
000260 d3 5d b9 3c ca 35 c2 3e fd b1 f1 3f e6 4a cb 3e
       0.022627747 0.37931663 1.8882443 0.3970558
000270 1d 5f 04 bd 4e 9f ce 3e 5c 7d dd bd 18 5f ef 3e
       -0.03231727 0.40355915 -0.10814926 0.46752238
000280 89 53 22 3f 12 28 41 be 06 65 ce 3f 06 2d de 3e
       0.63408715 -0.18862942 1.612458 0.43393725
000290 66 1a 91 3f e7 df 04 3e 95 91 9d 3e e5 92 0b 3e
       1.1336181 0.12976037 0.30775133 0.13630255
0002a0 0d 2d 88 bd df 9a 59 3d 6e 32 a8 3e 78 e4 6e 3e
       -0.06649218 0.053126212 0.32850975 0.23329341
0002b0 6f ed c1 3e 18 0e bf 3e 06 3d 9b bb b5 b0 87 3f
       0.3787646 0.3731544 -0.004737499 1.0600802
0002c0 5c 3f 0a 3e 35 b9 ed 3e 95 e5 9e bc 67 55 51 be
       0.13500732 0.46430364 -0.019396583 -0.20442735
0002d0 a2 8b 9c 3f 90 15 fc 3e 1e 23 90 3e f6 2f 08 bc
       1.2230113 0.492352 0.28151792 -0.008312216
0002e0 4b be 0b 3f 25 5b c1 3e b2 5e eb 3e d2 c0 c3 3d
       0.5458724 0.3776485 0.45970684 0.09558262
0002f0 11 2d bb be 62 28 04 3f 4e e3 8c 3f f6 48 16 3f
       -0.3655782 0.5162412 1.1006868 0.5870508
000300 69 ea 86 3c 60 11 6b be e6 09 32 3e 7e b2 f3 3e
       0.016469197 -0.22955847 0.17386588 0.47597116
000310 8b d1 44 3e 7b 61 8b 3f 3d cc 0b 3d 0b 06 fb 3e
       0.1922056 1.0889124 0.034130324 0.49028048
000320 1d aa ad 3e 92 09 10 3f f0 a7 12 3f fd 24 1e 3f
       0.3391885 0.56264603 0.572875 0.6177519
000330 14 a6 b9 3e 8a 03 18 bd ae 24 3d 3f 61 44 cb 3d
       0.3625952 -0.03711275 0.73884094 0.099251516
000340 b3 74 2a 3f e6 59 ac bd 63 41 b8 3e e6 8c 49 3e
       0.6658432 -0.08415584 0.35987386 0.19682655
000350 05 4c fe 3c 9c b0 ef bd 56 90 57 be 30 94 80 3e
       0.031042108 -0.117036074 -0.21051154 0.25113058
000360 9a 46 89 bd 1b 3b 53 bd 47 ee fb 3d e5 d0 97 3e
       -0.06702919 -0.05157004 0.12301307 0.2965156
000370 32 b3 3b 3f d4 46 19 3f 33 1f 87 bd a0 65 98 3d
       0.73320305 0.598737 -0.06597748 0.074412584
000380 2d 26 83 3e 16 97 05 3f 6e 84 26 3e 5a 96 68 3e
       0.25615063 0.52183664 0.16261455 0.22713605
000390 2d 54 d7 3e ac 42 0f 3f ec 06 e2 3e af 83 e5 3e
       0.4205641 0.5596111 0.44145906 0.4482703
0003a0 8e 23 29 3f d5 68 02 3e 19 c4 1a 3e 82 c4 ae bd
       0.6606988 0.12735303 0.15113868 -0.08533575
0003b0 2b 3c e6 3e 00 f0 2d 3f ec da c1 bd de 11 e2 3e
       0.4496778 0.67944336 -0.09465584 0.44154257
0003c0 c5 6b bb 3e 9f ae e1 3e e0 fa 09 bf cf bf 1c 3f
       0.3660566 0.44078538 -0.5389843 0.61230177
0003d0 50 6d 5a 3a 11 40 b2 3e 33 7e 59 3e e6 01 08 3f
       0.0008332329 0.34814504 0.21239547 0.53127897
0003e0 cb a6 b3 3e d1 a3 da 3e 09 16 cc bd e7 65 86 be
       0.3508819 0.42703107 -0.0996514 -0.2624962
0003f0 c4 bb 07 3e 70 8d 35 3f 80 f3 df be 34 80 c4 3e
       0.1325522 0.7091894 -0.43740463 0.3837906

l1.bias f4 [16]
000000 21 26 3a 3f a0 bd 4e 3f e5 52 74 3f 2e 1d 79 3f
       0.7271443 0.80758095 0.95438987 0.9731015
000010 c3 04 a8 3f c2 96 6e 3f 08 32 9c 3f 54 f3 42 3f
       1.3126453 0.9319879 1.2202768 0.7615254
000020 68 00 74 3f fe 9c 7e 3f 85 71 57 3f e3 82 76 3f
       0.9531312 0.994583 0.8415759 0.9629347
000030 df 03 63 3f 11 d8 25 3f d7 b3 8c 3f d0 61 98 3f
       0.8867778 0.64782816 1.0992383 1.190485

l2.weight f4 [16, 16]
000000 03 6a fe bc d1 8b 01 bd 91 09 ce 3f 41 41 ab 3f
       -0.03105641 -0.03162748 1.609667 1.3379289
000010 77 a4 a8 3f a9 55 d5 3e 1f ab 86 3e 7e 90 57 3f
       1.3175191 0.41666916 0.2630243 0.8420485
000020 55 9c 22 3f 43 18 48 3f a0 73 2f 3f 2d 5d e9 be
       0.63519794 0.7816202 0.68535805 -0.455789
000030 d6 db 86 3e 3e 39 a8 be f7 51 86 3f f5 4f 59 3e
       0.26339597 -0.32856172 1.0493764 0.21221907
000040 13 ee 51 3f 21 ce a6 3f ce 4e 4c 3e 68 53 55 3f
       0.820039 1.3031656 0.19951937 0.8333039
000050 c6 b4 bf 3f ab 8b 05 3e 70 0b ce 3f f9 bd 9f be
       1.4977043 0.1304156 1.609724 -0.31199625
000060 91 8d c7 3c 7b cb b8 3f 69 7d b2 3e 1f 61 6e 3f
       0.024359496 1.4437097 0.34861305 0.93116945
000070 af 4e 7c be a4 fb d1 3f 47 7c 8b 3f d0 2e 04 3f
       -0.2463939 1.640492 1.0897301 0.5163393
000080 99 62 82 3f 7e 3f 34 3f 47 b5 b6 3f d8 1f a2 be
       1.018634 0.7040938 1.4274071 -0.3166492
000090 04 1f 62 be 3b 54 83 3f b3 30 fc 3f a4 fb 04 be
       -0.22082144 1.026008 1.9702362 -0.12986618
0000a0 17 47 81 3f e8 2b e0 bd bf e2 d6 be c9 90 8d 3f
       1.009982 -0.109458745 -0.4196987 1.105981
0000b0 87 af e4 3f 45 07 5d 3f a2 4b bf 3d 35 5d d0 3f
       1.7866067 0.8633922 0.09340598 1.6278445
0000c0 c7 61 f1 3e 38 f2 13 bf f0 b0 c2 3b 0c 33 bf 3e
       0.4714491 -0.5779147 0.0059415027 0.37343633
0000d0 55 20 89 3f 27 c4 c1 3f b5 93 a0 3f 2a c5 ec be
       1.0712992 1.5137986 1.2545077 -0.46244174
0000e0 4f ce 82 3e 1e 5f d3 be eb bd e9 3f cd 91 d0 3f
       0.25548026 -0.41283506 1.8261083 1.6294495
0000f0 8d d3 2a 3f 95 22 3c be 92 95 8f 3f f2 27 30 3f
       0.6672905 -0.18372567 1.121752 0.6881095
000100 26 41 50 be d2 3e cc 3e 9e 62 85 3f 45 82 3b 3e
       -0.20337352 0.39891678 1.042072 0.18311413
000110 04 f6 f4 3e 7c f6 2d bf 9a 1b 13 3f 90 82 33 3b
       0.47843945 -0.6795423 0.5746399 0.0027391054
000120 0c c9 a9 3f d7 04 50 3f 61 e5 f7 be 47 41 3b bf
       1.326448 0.81257385 -0.4841719 -0.7314648
000130 06 0a ae bd 37 e6 46 3f df 20 a5 3f 21 6b a7 3f
       -0.084980056 0.7769503 1.2900656 1.3079568
000140 56 44 15 bf 0a 70 30 3f f2 6c 5e 3f 8d d7 5a 3f
       -0.583074 0.6892096 0.8688499 0.85485154
000150 1a 8b 72 3f bd 3e a0 3f f8 e7 47 bf 00 a3 37 3f
       0.947435 1.2519146 -0.7808833 0.71733093
000160 4c 79 4d be 24 d8 23 bf d3 94 8c 3f e0 1c 5e 3d
       -0.20065802 -0.6400168 1.0982918 0.054226756
000170 96 1a c9 3f 0f 94 e4 3e 54 8c a1 3d e0 82 93 3f
       1.5711238 0.4464421 0.078880936 1.1524315
000180 8a 13 91 3f 63 58 89 3f a2 51 bd 3f 8e 85 14 bf
       1.1334088 1.0730098 1.4790537 -0.5801629
000190 16 a7 a5 3e 9d ae b2 3e 84 ca 58 3f 8f 1e 43 bf
       0.3235404 0.34898844 0.84684014 -0.76218504
0001a0 40 c9 31 be e7 18 1f 3f 17 9d 70 3f ed 2a a2 3e
       -0.17361927 0.6214737 0.939897 0.31673375
0001b0 4d 70 1b bf d9 8b 32 3f 0e a2 c2 be d1 ee 72 3f
       -0.6071823 0.6974464 -0.38014263 0.94895655
0001c0 e1 ef 1b 3f 48 ca c6 3e 9b 65 08 3e 17 88 75 3f
       0.609129 0.38826203 0.1332001 0.9591078
0001d0 78 65 ad be 00 45 a0 3f d5 90 7b 3f ac 9e bc 3e
       -0.33866477 1.2521057 0.9826787 0.36839807
0001e0 38 39 78 3f 9e a6 a1 3f a0 ea c5 bd 58 0a 23 3f
       0.9696231 1.2628973 -0.09663892 0.6368766
0001f0 18 1d b5 3c b7 f3 8b bf 82 8e 34 bf 90 9b 4d bd
       0.0221086 -1.0933751 -0.7052995 -0.050197184
000200 c9 43 94 3f 29 41 56 bf 29 3b 38 3f 92 cb 6a bc
       1.1583186 -0.83693177 0.7196527 -0.0143307615
000210 1a 80 93 3f b7 0f 1a bf 93 df 93 3f 0b 78 6e 3f
       1.1523468 -0.6018023 1.1552604 0.9315192
000220 06 a5 16 bf de d3 f9 3e fc e0 6f 3f c3 34 9e 3e
       -0.58845556 0.48794454 0.93702674 0.3089963
000230 72 c5 21 3f dc dd b4 3f 5b e4 b4 3f 04 8f 37 3f
       0.631919 1.4130206 1.4132189 0.717026
000240 ea f3 9b bf 0a 2e a8 3f 1d ea 48 3f 57 cf f9 bd
       -1.2183812 1.313905 0.7848223 -0.1219775
000250 9f 1a c1 3e 4e 44 67 3f cd d3 e6 3c 12 f7 4c 3f
       0.37715623 0.903386 0.028177166 0.800645
000260 62 f0 e7 3e 29 dc 88 be 75 da c6 be 9c 34 0e 3f
       0.45300585 -0.2673047 -0.38838544 0.55549026
000270 e4 cf d6 3e 03 ba b5 3f a3 c9 8d 3f 30 b5 18 3f
       0.41955483 1.4197391 1.107716 0.5965147
000280 9a 7b 48 bd 50 d1 22 3e 12 8d 94 3f 6e 99 77 3d
       -0.048946 0.15900159 1.1605551 0.060449056
000290 38 60 69 bf 81 60 90 3e 2a 07 8d bf fc b9 d6 3f
       -0.91162443 0.28198627 -1.1017811 1.6775508
0002a0 53 53 92 3f 83 7f 51 3f db 16 8d 3f ea d8 35 3f
       1.1431679 0.8183519 1.10226 0.7103411
0002b0 fe 79 7e 3f ac 4a 0f be aa 2c 70 3f ff e8 0e 3f
       0.99404895 -0.13993329 0.9381815 0.55824274
0002c0 0f b5 cf 3f fd 07 7c 3f d0 ac 3b be 80 d1 af 3f
       1.622713 0.9844969 -0.18327641 1.3735809
0002d0 44 48 e2 3e d1 c4 25 3f b2 17 81 be 0d 3d 8f 3f
       0.4419576 0.64753443 -0.2521339 1.1190506
0002e0 cf b3 36 3f 4d 68 24 3f d4 46 71 3f 54 bb 69 3e
       0.71368116 0.6422165 0.942487 0.22825366
0002f0 28 69 2f 3f f1 e4 19 bf fd ee 87 3e da 96 34 3f
       0.6851983 -0.6011496 0.2654952 0.7054268
000300 0f f2 9c 3f c2 7a 6a bf 74 44 53 bf fc 61 17 3f
       1.226137 -0.91593564 -0.82526326 0.5913389
000310 f3 f1 22 3f 4f 44 83 be 42 77 5b 3f 54 43 ff 3e
       0.63650435 -0.25638053 0.8572885 0.49856055
000320 c0 cc 42 3f 0d e7 1e 3f 6a c6 00 bf 3a d9 b1 be
       0.76093674 0.62071306 -0.50302756 -0.34736043
000330 b7 99 d2 3f c1 6b 47 be f0 57 98 3e 55 2a a0 3f
       1.645316 -0.19474699 0.2975459 1.2512919
000340 a7 91 9c 3f 4e 04 46 3f 9b aa 65 3f 6e dc c7 3f
       1.223195 0.7735032 0.8971345 1.5614145
000350 5f 68 d8 3f 85 68 59 3f e2 29 00 3f 60 ca b2 3e
       1.6906852 0.8492511 0.5006391 0.34920025
000360 1d eb 29 bf 33 f7 b6 3f e8 36 71 3d e1 60 87 3e
       -0.6637438 1.4294189 0.058890253 0.264411
000370 d0 d8 75 3f 09 90 79 3f b9 62 6e bf 9d 84 c6 be
       0.96033955 0.97485405 -0.9311939 -0.3877305
000380 4e e6 f5 3d 3a d3 d6 3e b8 ae 8d 3d 50 d9 8e 3f
       0.12006818 0.41958028 0.069180906 1.1160069
000390 6a ac 73 bd 6f d8 b4 3e 64 05 9e 3f df fd 1c 3f
       -0.0594906 0.35321376 1.2345395 0.61324877
0003a0 61 48 cf 3f 79 ed 8f 3f 42 c2 52 be 34 91 be bd
       1.6193963 1.1244346 -0.20581916 -0.09305039
0003b0 8b a2 43 3f 77 f2 a6 bd 85 01 ac 3f 8b fd 6f 3f
       0.76419896 -0.08151715 1.3437964 0.9374625
0003c0 0f 11 f6 bd 61 ba e1 3f 0a 44 30 bd b6 31 82 3d
       -0.120149724 1.7635003 -0.043033637 0.06357138
0003d0 03 ac 6a 3f 21 b0 b9 3f 2a c3 8b 3e b2 e7 4e 3f
       0.9166872 1.4506875 0.27297336 0.8082229
0003e0 1e d4 5a 3f 49 bc 91 3e d6 95 ac 3e c6 d2 e0 3f
       0.85479915 0.28463963 0.33708066 1.7564323
0003f0 b0 75 23 3e 83 2c 90 3f 09 48 42 3f cd 1e 42 bd
       0.15962863 1.1263584 0.75891167 -0.047392655

l2.bias f4 [16]
000000 06 52 12 3e ce 2c d6 3e 5f 91 19 3f 8b 26 1a 3f
       0.14289102 0.41831058 0.59987444 0.6021506
000010 e2 8e 15 3f 66 39 d7 3d df fc d3 3d fd 25 d7 3e
       0.58421147 0.10508995 0.10350966 0.4202117
000020 53 b3 3a 3e ca f2 e1 3e ad bd 85 3e c8 36 94 bd
       0.1823247 0.44130546 0.26121274 -0.07237011
000030 ee d1 02 3f 1f a9 59 3e a9 40 8a 3e 50 6d 3f 3e
       0.5110158 0.21255921 0.27002457 0.18694043

l3.weight f4 [40, 16]
000000 f1 e5 60 be 82 b0 ba be af 13 0a c0 d8 c4 9b bf
       -0.21962716 -0.3646279 -2.1574514 -1.2169447
000010 b6 c6 63 bf 67 b2 b2 3e ee c3 77 bf 90 2a 48 3d
       -0.88975084 0.34901735 -0.9678334 0.048868716
000020 9c 11 44 bf be 83 c7 3e 2c a2 24 be 92 7b 94 bd
       -0.7658937 0.389677 -0.16077489 -0.07250132
000030 e0 48 04 bf bb 2c ad 3e e1 29 1f bf 50 34 05 3e
       -0.516737 0.3382319 -0.6217328 0.13008237
000040 c7 9e 21 3e 36 b8 b4 bf a8 b6 b0 bf be 4e 16 be
       0.15783225 -1.4118717 -1.3805742 -0.14678475
000050 82 32 4c bf 3e 17 cd 3d 37 91 cd 3b aa ff 02 3e
       -0.7976457 0.10014199 0.0062734145 0.1279284
000060 ee b4 9b bd 1c 4b 9d bf 97 87 90 3e e2 b0 3d 3e
       -0.07602869 -1.2288547 0.28228447 0.18524507
000070 c8 23 8a 3c 04 de 62 3e 22 a2 58 bf 93 04 b6 bf
       0.016862765 0.22155005 -0.84622395 -1.4220146
000080 f1 bf 6a 3e 01 b3 22 3d 6b af 1f c0 ff 33 5b be
       0.22924782 0.039721493 -2.4950817 -0.21406554
000090 21 27 68 bf ac 1d c1 be 71 9e 85 3e f1 bb 4a 3e
       -0.90684706 -0.3771795 0.26097444 0.19798256
0000a0 a4 d0 e4 be 87 ff cf bf 8b 81 8b bf f9 5f 49 3e
       -0.4469043 -1.6249856 -1.0898908 0.19665517
0000b0 b1 c1 c0 be c7 e4 b3 3e f4 3e 2e bf 49 a6 cc be
       -0.37647775 0.3513548 -0.6806481 -0.39970616
0000c0 e2 5d c9 3e 85 a2 d0 bf 56 00 e4 bf 8c 85 1c bf
       0.3932944 -1.6299597 -1.7812603 -0.61141276
0000d0 ed a8 00 be 67 10 35 3e be 07 e2 bf 4c 13 fd 3a
       -0.1256444 0.17682038 -1.7658613 0.0019308119
0000e0 4b b2 5e 3d bb e2 1f bf 49 6e ce 3e 63 98 00 3f
       0.054369252 -0.6245534 0.40318516 0.50232524
0000f0 4d 65 b7 3e dc 2f 50 bf 77 61 4a 3e 10 5d 79 bf
       0.35819474 -0.8132303 0.19763742 -0.9740763
000100 1d 06 e6 bf 82 c4 87 be 97 0a ae bd 7e 4d 51 3d
       -1.7970616 -0.2651711 -0.084981136 0.051099293
000110 fd 04 e3 bf 84 9d 0a c0 a4 f1 5c bc ea ad 06 3f
       -1.7735897 -2.165864 -0.013485346 0.5260912
000120 33 31 43 be be 82 c2 bf 24 27 a6 bf ac 9c 8b ba
       -0.19061737 -1.5196149 -1.2980695 -0.001065155
000130 b2 5a 9f 3d d9 32 5e 3e 7e 89 55 be b3 42 f8 be
       0.07780971 0.21699084 -0.2085323 -0.48488387
000140 3a 16 b4 bf e7 3e 2e 3e 3c 07 f4 bf b4 2d e6 3e
       -1.4069283 0.17016183 -1.9064708 0.44956744
000150 c2 62 39 bf 54 db 10 be 36 84 1d 3d 63 c1 7e bf
       -0.7241632 -0.14146167 0.038456164 -0.99513835
000160 f2 3c 66 be 65 1a b1 3e 90 ac 9e bf 6d 56 61 bf
       -0.22484186 0.3459045 -1.2396412 -0.880225
000170 9e 51 79 bf 2e 9c 04 be 75 e8 88 bf c5 f1 1c 3f
       -0.9739016 -0.12950203 -1.069594 0.6130641
000180 52 07 0f bf 05 2d fe be bd 90 43 bf d2 b2 14 c0
       -0.55870545 -0.49643722 -0.7639273 -2.3234143
000190 86 0a f3 3d 27 18 35 bf de 9e ad 3d b2 a0 50 be
       0.118672416 -0.7073998 0.08477567 -0.203738
0001a0 37 81 da be 96 29 09 3e f8 ef 57 3e cf c6 00 bf
       -0.42676708 0.1339477 0.21087635 -0.5030336
0001b0 7b bf 17 bf d3 99 31 bf e2 18 c2 bd 39 03 9e 3c
       -0.5927655 -0.6937534 -0.09477402 0.019288646
0001c0 95 81 09 3e fc 5a 64 bf 48 ac f7 bf 43 89 07 3e
       0.13428338 -0.8920133 -1.9349451 0.13235955
0001d0 18 a4 d7 bd 2f f9 1b 3e 5c be 0c be 6b 41 9d be
       -0.10529345 0.15231775 -0.13744491 -0.30713972
0001e0 7a 39 80 bf a6 0d f7 bd 2d 1a ae 3c 5a 60 af be
       -1.001754 -0.1206315 0.021252716 -0.34253198
0001f0 e9 4b 0a bf b1 46 2a bf e2 e5 55 be 97 45 09 bf
       -0.5402208 -0.66514117 -0.20888475 -0.5362181
000200 27 b4 0d 3f af ff 0c be dd bc 22 c0 5f 63 1a bf
       0.55353016 -0.1376941 -2.5427773 -0.6030788
000210 98 a5 48 be 64 56 36 3e 05 4c f8 bc 2b 61 2f be
       -0.19594419 0.17806393 -0.030309686 -0.1712691
000220 04 08 05 3e a3 fc 14 bc c2 13 4d bf 77 39 92 bf
       0.12991339 -0.009093436 -0.80108273 -1.1423787
000230 a7 53 6f bf 83 d7 c6 3e 9f 77 8e bf de ce d1 be
       -0.9348702 0.38836297 -1.1130255 -0.4097814
000240 68 79 8a bf ad 72 0c bf 32 33 a5 be 28 15 cb 3e
       -1.08183 -0.5486248 -0.3226562 0.39664578
000250 1a 74 c7 bf 3b d4 4b 3e 27 12 b9 bd c8 37 fb be
       -1.5582306 0.19905178 -0.090366654 -0.49065995
000260 55 08 c2 bd 69 41 99 bf 13 e0 a2 bf 42 d1 da bd
       -0.094742455 -1.1973087 -1.2724632 -0.10684444
000270 42 b8 88 3e 0b f6 64 be f9 b4 bd bf f0 45 04 bf
       0.26703078 -0.22359483 -1.4820853 -0.51669216
000280 9d 18 c5 be 1c d6 12 bf 17 ed 2d bf c7 8e ad 3e
       -0.3849534 -0.57357955 -0.67939895 0.33897993
000290 76 12 d9 bf 0a 0f 26 bf 14 0d d0 3d 0e ca ad 3e
       -1.6958759 -0.648667 0.101587445 0.33943218
0002a0 4d d1 9b bf 80 24 89 bf 02 46 b5 3d 37 7a 12 be
       -1.2173249 -1.0714264 0.088512436 -0.14304434
0002b0 ed e1 8a bf f9 24 07 be 33 8f 68 bf 35 60 13 bc
       -1.0850197 -0.13197698 -0.90843505 -0.0089951055
0002c0 ce 18 fc 3d 77 cc 08 c0 5a 51 fe 3d 3f a2 f2 bf
       0.123094186 -2.1374795 0.1241786 -1.8955764
0002d0 ae 06 b8 3d 8d 81 3f 3e 7b ec 18 bf b6 b3 93 be
       0.08985649 0.18701763 -0.5973584 -0.28848046
0002e0 d2 31 93 bf a1 a5 fb 3e 10 37 8b 3e f5 f7 90 be
       -1.1499579 0.49149802 0.27190447 -0.28314176
0002f0 09 9a d4 be 36 b7 88 bf 06 ba 8f 3d 47 c6 58 be
       -0.4152377 -1.0680912 0.07017903 -0.21169387
000300 71 29 8c bf 83 ab 85 bf d4 35 b1 bf d8 1b 9e 3e
       -1.0950147 -1.0442966 -1.3844552 0.30880618
000310 c8 68 9a bf b7 5c 8f 3e 1c 01 2f bf c8 2d 9f 3d
       -1.2063227 0.28000423 -0.6836107 0.07772404
000320 af 58 c2 bf 1a 88 b1 3e 15 21 93 3e 58 92 b5 3e
       -1.5183314 0.3467415 0.28736177 0.35463214
000330 0c 0f 97 bf 3d c3 7e bf e7 09 67 be 95 d1 bb 3e
       -1.1801467 -0.9951666 -0.22562371 0.36683336
000340 6e ae 29 3e e6 e9 a2 be b3 88 64 c0 9d 61 d7 3e
       0.16570446 -0.31819075 -3.5708435 0.4206666
000350 8a 9c 0e be 5a 2b aa 3d 7a ac e1 bf 1e 5c 93 bf
       -0.13926902 0.0830905 -1.7630761 -1.1512487
000360 6a b0 09 3b 41 71 cf be 35 c7 94 bc 0d 0f 4e 3d
       0.0021009692 -0.40516093 -0.018161396 0.050307322
000370 b3 e4 8c 3e c6 92 dc 3d 27 77 bd be 81 6f 1c bf
       0.27518234 0.10770182 -0.3700497 -0.6110764
000380 ec f4 86 bb eb eb 6a be 8c 1b d1 bf a9 7b a6 be
       -0.0041185524 -0.22941558 -1.6336532 -0.3251622
000390 00 84 89 3e 44 e7 6b bf e4 c7 fd bf 1c b5 a6 3e
       0.2685852 -0.9214976 -1.9826627 0.3256005
0003a0 4e b9 de be 4a 0b 19 bd 76 59 dd bc 3b eb 00 bf
       -0.4350075 -0.03736428 -0.027020197 -0.50358933
0003b0 bc d7 82 3e c9 57 04 c0 1f 02 df 3e 02 21 46 be
       0.25555217 -2.067858 0.43556306 -0.19348529
0003c0 62 21 81 bf 09 d7 c2 bd 7b 04 ce bf d9 04 6f 3e
       -1.0088313 -0.09513671 -1.6095117 0.23341693
0003d0 89 c8 d9 3d 35 f3 73 be ff 2f aa 3e 1b 2b b3 bf
       0.10633952 -0.23823245 0.33239743 -1.399753
0003e0 e1 1f fa 3e 31 c5 78 bf 02 11 be be d3 e1 12 bd
       0.48852447 -0.9717589 -0.3712235 -0.035859894
0003f0 2e fe 27 3e dd 13 83 bf b5 c3 34 bf 00 6f 83 bf
       0.16405556 -1.0240437 -0.70611125 -1.026825

l3.bias f4 [40]
000000 cd d6 8a be a3 fd 1f be a1 7a 8a bd 26 29 65 be
       -0.27117005 -0.15624098 -0.06761671 -0.22378978
000010 1b b5 91 3c 5d 4c 81 3d 2c fb 69 be 6d a8 22 be
       0.017786553 0.06313393 -0.2284972 -0.15884562
000020 49 aa 4c 3e 55 33 55 3e 82 1f b4 3c ed c8 48 3d
       0.19986834 0.20820363 0.02198768 0.049019743
000030 70 7c 0e be 13 39 1e 3d 77 3e 43 3e 25 6a 31 3e
       -0.13914657 0.03862865 0.19066797 0.17325647
000040 58 a3 39 3d ee 98 dc bd 46 bd 45 be 99 e2 24 bb
       0.045321792 -0.107713565 -0.19310483 -0.0025159477
000050 fe 59 0b be 91 30 9d 3e ab 72 4b be 45 11 8a bd
       -0.13608548 0.30701116 -0.19867961 -0.06741575
000060 7a eb 1d 3e d5 66 5d 3e 57 76 52 be 78 e5 ab bd
       0.15421858 0.21621259 -0.20552956 -0.08393377
000070 16 ae a8 bd 6f 74 f4 bd 5d ae c9 3b 6b 42 a1 be
       -0.08236329 -0.119362704 0.006154819 -0.31495985
000080 32 ae f7 3d 09 a8 63 3e 5e 0e e8 bd f5 eb 37 be
       0.12093772 0.22232069 -0.11330865 -0.17961104
000090 4f cc 12 be e0 ed 2a be 43 09 e0 bb e9 db c0 3d
       -0.1433575 -0.16692305 -0.0068370416 0.094169445
