chatbot/data1.pth (torch, 27071 bytes, 6 tensors)

l1.weight f4 [8, 494]
00000000: cce8 333f 0336 01be b08c 933e 5f89 3a3e
00000010: 96c5 303e 93dc 563e b36a 983d 8888 8a3e
00000020: bece a73d 6fb5 bf3e 1a6f 0b3e 9e33 623e
00000030: 7713 9c3e 513c 573f 2c8f 8c3e 9721 c53e
00000040: ae3f 883e 2f39 b23d e3e7 9b3d 138e 2d3f
00000050: 3f4f 943e 74ed 993d 1d12 683e dfa8 023f
00000060: 0c02 46be e0e6 083f 9538 89bf 1311 c13e
00000070: 29c6 3c3e 40a1 823e 3aa1 c53e 6815 abbc
00000080: aaec 2b3e f253 0d3f 686f e63e e15c c03c
00000090: 0613 b6be 065c 963e c34f 843f 795e bb3e
000000a0: beea 50be 2baf 34bf de25 423f 3ccf 3abc
000000b0: ea7c 0f3e e0ce 6bbd 84f8 1c3f 378b 02bd
000000c0: a47e dd3e a02a 273f e455 0fbf e83b 8b3e
000000d0: c42c 293e b49b 0e3b 0f59 ecbe f1ad 32bf
000000e0: 1022 8b3e 61de 513f a523 bbbe 520a b1be
000000f0: d19b 343e c86b a3be bf32 1abe 7534 113e
00000100: 4c25 573f afd6 433f 3f2b e73e 7725 45be
00000110: 13f0 273f 46d5 163b 32f1 8b3e 2e63 393f
00000120: e5fd fb3e 69b7 803f 1a80 0cbf 5b7b a13e
00000130: f6b4 853e 7194 0e3e b142 833f 435e 653c
00000140: 2cb1 b53f 0f61 71bf d0d1 30bf 91ec 86bf
00000150: b594 7b3f 1a47 353e e5c8 e63f 0e49 223f
00000160: 9146 9a3e 9f8e d33d 51e9 bf3c e3ae 8f3e
00000170: d302 a23e ddca 363f cdc7 343f 7557 f5be
00000180: ab33 883e 3273 b83e 22cc 2c3f f825 ddbb
00000190: 4adf a4be 695e 7ebd 2757 e8ba 81b8 debc
000001a0: a081 283e e5b3 1f3f bfad 34bd 1c5b 133e
000001b0: a549 643f 6482 ff3e bce2 093e 27c5 473d
000001c0: f36f f83e 3d3b 6a3f 81e6 0b3e 5e6a 7ebd
000001d0: 0516 d83e e387 183f 833f 09be 1a6e c7be
000001e0: fa5d de3d 8a21 7d3c d878 47bf a2bc 0fbe
000001f0: c7fe 11bf 31bb 0a3e d334 59be 62c7 df3e
00000200: 4c89 fc3d 6053 75bd 412d a4bd ead2 cf3e
00000210: 0086 ddbe 95d2 afbe 763a e23e 051c 103e
00000220: d37e 3c3f b5cf a9bd 8e33 b33e 2db5 b03e
00000230: 11d0 933e d292 903e 7500 e03e 7c58 16bd
00000240: bced 293f 0fca 713f a871 44be a1c4 9e3d
00000250: 6089 9f3d 47be 41bd 4455 143f 7ba1 143f
00000260: 4f37 c9be d696 5b3f 9423 b73f ec75 133f
00000270: 9991 b53e f861 e13e b6d3 d5be 49b7 1a3e
00000280: 3beb 83bd 0693 54be a9c4 9d3d de67 a63e
00000290: a105 fa3d 0368 5bbc c10e 98bd 52c8 04bf
000002a0: 36fd 4cbd 3cd9 dd3e 9e32 823e 347d 88bd
000002b0: 7b72 acbe 06f6 5b3e 85a2 873f 2ea7 c53f
000002c0: bd26 e93d d383 71be c440 b93e c960 bfbd
000002d0: 5a4c b0be bbf3 17be 2333 0f3f 2394 633d
000002e0: 5d2a b73e f1da 2c3f fe80 753e d324 ff3d
000002f0: 9a9d 943e bdfb 713d c1bb 463f 191d 3b3f
00000300: 7384 14bf 16f8 2b3e a4ee 603e bbb1 823c
00000310: 3fe8 dc3e b1b0 9d3f 1f9c 0a3e 1d67 733c
00000320: 530a 4b3f 587d 393f a001 e03e 0e96 823e
00000330: 701e 763f e58c 2b3e ba00 283f 469a ed3e
00000340: 8999 d33e 294f 8abe e1c1 d73e 22ac aebe
00000350: 90b7 32bc 660d bd3d 4092 d23e b0a6 493f
00000360: 7e8a 753e 0263 2ebe 44d1 afbe ea97 9ebe
00000370: d5a2 63be 1eb7 f73e a7ca 2f3e d130 c03e
00000380: 3f03 3c3d 74dd e13e 28f2 9a3e 5eff 2c3e
00000390: 5de4 153e 9268 aa3e 453a d4be 91b2 d93e
000003a0: 16fa 243f cbd9 d83e f8ac 083f a002 833f
000003b0: c7e4 843d c2a3 62be f667 443e b125 97bf
000003c0: e7be 30bf 0725 6b3f bd1f 96be faee 9d3e
000003d0: 6f57 a0bc d520 cb3e 196a 873e cc81 69be
000003e0: 66eb c63d ce98 fc3d b1d3 f43c 077b 1abe
000003f0: e101 05bd 4e5e 37be 5253 06bf c6e1 873e
0.70277095 -0.1261826 0.28818274 0.18216465 0.17262873 0.2098258 0.07442226 0.2705729
0.0819373 0.3744311 0.136166 0.22090003 0.304836 0.8407641 0.2745298 0.3850219
0.26611084 0.08702313 0.07612588 0.67794913 0.2896671 0.07515994 0.2266316 0.51038927
-0.19336718 0.5347729 -1.0720392 0.3770834 0.18434967 0.2551365 0.3859957 -0.02088423
0.16789499 0.55206215 0.4500687 0.023481788 -0.3556139 0.29367083 1.0336841 0.36595514
-0.20402047 -0.70579785 0.7583903 -0.011401948 0.14012495 -0.05757034 0.61316705 -0.031871047
0.43260682 0.65299416 -0.55990434 0.27194142 0.16520983 0.0021760287 -0.46161696 -0.69796664
0.27174425 0.8197995 -0.36550632 -0.34578186 0.17637564 -0.31918168 -0.1505842 0.14180167
0.84041286 0.76499456 0.45150182 -0.19252573 0.656007 0.0023015304 0.27332455 0.7241696
0.49217144 1.0055972 -0.5488297 0.31539425 0.26114625 0.13923813 1.0254728 0.0139995245
1.4194694 -0.94288725 -0.6907015 -1.0540944 0.98273784 0.17702904 1.8030058 0.6339272
0.30131963 0.10329937 0.023426684 0.28063115 0.3164278 0.71403295 0.7061737 -0.47918287
0.2660192 0.36025387 0.6749898 -0.006748911 -0.32201606 -0.062101755 -0.0017726169 -0.027187588
0.16455698 0.6238387 -0.04411101 0.14390224 0.8917487 0.49904168 0.13465399 0.048772004
0.4852291 0.9149664 0.13662149 -0.06211316 0.422043 0.59582347 -0.13403134 -0.38951188
0.10857768 0.015449891 -0.7791877 -0.14036801 -0.57029384 0.1354797 -0.21211557 0.43706805
0.12330875 -0.059893966 -0.08016444 0.40590602 -0.43266296 -0.3434035 0.44185227 0.14073189
0.7363102 -0.0829157 0.3500027 0.34513226 0.2886968 0.28237015 0.4375035 -0.03670548
0.6637838 0.9444894 -0.19183981 0.07752348 0.07789874 -0.047300603 0.57942605 0.580589
-0.3930001 0.8577703 1.4307733 0.5760181 0.35462645 0.44020057 -0.41763085 0.1510898
-0.06441351 -0.2075921 0.077035256 0.3250112 0.12208105 -0.013391498 -0.07424689 -0.51868165
-0.05004617 0.433298 0.25429243 -0.066645056 -0.33681092 0.21480569 1.0596472 1.5441644
0.11384342 -0.23585443 0.36182225 -0.09344632 -0.34433252 -0.1483907 0.55937403 0.055561196
0.35774508 0.6752158 0.23974988 0.124581955 0.2902649 0.059077967 0.7763024 0.73091274
-0.580146 0.16793856 0.21966034 0.01595389 0.4314594 1.2319547 0.13536118 0.014856127
0.7931263 0.72456884 0.4375124 0.25505108 0.96140194 0.16752966 0.6562611 0.46406764
0.41328076 -0.2701352 0.42140105 -0.34115702 -0.0109080225 0.09231071 0.41127205 0.7876997
0.23978612 -0.17029956 -0.34339345 -0.30975276 -0.22230084 0.48381895 0.1716715 0.37537244
0.045901533 0.44114268 0.30262876 0.1689429 0.14637895 0.33282906 -0.41450706 0.42519048
0.644441 0.42353663 0.5338893 1.0235176 0.06488948 -0.22132781 0.19180283 -1.1808378
-0.69041294 0.91853374 -0.2932109 0.30846387 -0.019572942 0.39673486 0.26448134 -0.2280342
0.097128674 0.12333833 0.029886099 -0.15085994 -0.032472495 -0.17907068 -0.52470887 0.2653944

l1.bias f4 [8]
00000000: 76ad e73f 35b5 a93f 44b8 1040 3eb7 833f
00000010: 6dbe f13f 2e52 8e3f 28c4 b63f cec1 cc3f
1.8099811 1.3258425 2.2612467 1.0290296 1.8886238 1.1118829 1.4278612 1.5996644

l2.weight f4 [8, 8]
00000000: 1b8f ae3e 3be2 3cbf 2efc 2840 3c90 a4bf
00000010: 717c 4e40 4465 253f 5eb2 f43f b256 5c40
00000020: 2eff a6bf d512 a13f 20cc 733f b142 3440
00000030: 9e67 e23f 0923 2440 2ee7 133d 64fb aabe
00000040: 9420 553f a959 3c3f 10b5 3440 56fa 3740
00000050: 5702 6abe 497f 0fc0 703b adbe f4e9 453f
00000060: 714b be3f 5886 2b40 5efb 373f 286d 7abf
00000070: 49aa 1f40 10a1 2dbf 869d 1fbe 2468 25bf
00000080: 6c37 95be 6c9e 05bd f452 1e3e 8223 29be
00000090: 8622 a5be e8e3 873e 07bc 413d 7580 40be
000000a0: b078 e33f daa4 e13f 5cb2 0140 1da9 41be
000000b0: d742 da3e 0246 0a40 1011 0ec0 89ff cabe
000000c0: 78e3 18be 80b1 bd3d 438a 1abe 872d 74be
000000d0: 65c7 a2be efe3 453e d47c febc c788 38be
000000e0: 193a 7840 321c 4a40 1d9b 403f d4fa 2840
000000f0: c239 22bf 23cd 5840 21bb 6e40 788d ebbc
0.34093556 -0.737827 2.6403918 -1.2856517 3.2263453 0.64607644 1.9116933 3.4427915
-1.3046625 1.2583872 0.95233345 2.8165705 1.7687871 2.5646384 0.036109142 -0.3339492
0.83252835 0.7357431 2.8235512 2.8746543 -0.22852455 -2.2421439 -0.3383441 0.7731011
1.4866773 2.6800747 0.7186793 -0.9782281 2.4947684 -0.67823887 -0.15587434 -0.6461203
-0.29143846 -0.032621786 0.15461332 -0.16517451 -0.32252902 0.26541066 0.047298457 -0.18799002
1.7771206 1.7628434 2.0265112 -0.18912168 0.4262912 2.160523 -2.2197914 -0.39648083
-0.14930522 0.09262371 -0.15091805 -0.23845492 -0.3179275 0.19325231 -0.031065382 -0.18020926
3.878546 3.157971 0.75236684 2.6403093 -0.6336938 3.3875206 3.7301714 -0.028753981

l2.bias f4 [8]
00000000: b2cd a83f 21f2 babe 5476 183f 67fc 303f
00000010: 25fc 60bd e61b b13e a0f4 74be d67b 413f
1.3187773 -0.36512855 0.59555554 0.69135135 -0.054927964 0.34591597 -0.23921442 0.75579584

l3.weight f4 [40, 8]
00000000: f9c6 10bf 90f1 453e efc0 08bd d6a4 493b
00000010: 4392 243d 8b05 83bf 707b 6fbd 5283 46bf
00000020: 8106 2cbf 93e9 38bf b29f b0bf 638d 303f
00000030: 1bca b0bd 0dc5 2b3f 35af b4be 0436 22bf
00000040: 836a a6bf 7aad 5c3d 79d8 33bf 1991 97be
00000050: be41 00be fe84 ce3e f77f 333e 9a4b 77be
00000060: d2ca c13e 41aa 1bbf a484 233f 53c9 1bbe
00000070: d006 813d 2a8d 423f 5c95 dabd 6fd7 3cc0
00000080: 9230 393b d57d f4bc e5eb 17c0 98a1 56be
00000090: 6a22 c4bc fe68 113f cc68 aa3e c6a1 59bf
000000a0: a350 10c0 616a a0bf 1572 19c0 0137 b13e
000000b0: b75d b93d 18be 593f d9c5 a3be 46b0 383f
000000c0: 5cfa db3e 0bc2 093e 831b 613e fe53 21c0
000000d0: ad00 a83e 88fd e3bf b439 4dbe 05a8 57bf
000000e0: 6697 873f a83b f6bf c6d6 1dbf 93ac 583f
000000f0: aed4 4dbe 28c1 bfbf 41ec 81be c5e8 dcbf
00000100: 9374 d8bd cf97 95bf 3ae5 fd3e 490e 76bf
00000110: 4880 2f3e 780f 8cbf 643b 4d3e 7b7f c7be
00000120: 050a f4be 2a5d 23c0 8623 80be 9ba3 f5bc
00000130: 6f43 5a3e 8c0a f03d d20c b03d 04c1 05bd
00000140: 7bf7 eebf 1cbf a73e aea9 0fc0 3cc6 483f
00000150: b01e e43d 69e3 253f 4599 f3bd e9cc ddbd
00000160: cf93 fe3e 9cf2 b4bd 0583 993e b2eb 803d
00000170: 5971 d4bb a41c 77bf cde2 233e ca7b 0ec0
00000180: 6097 a13e 4ae4 12c0 55d3 523f 4b12 11c0
00000190: ce43 0b3e dd17 e53e 2573 9cbe 67d3 68bf
000001a0: e510 d9bf be9b 8ebf 2052 d7be 1170 f5bd
000001b0: d0cd 24be e0be 29be 522f f9bb 601b e93e
000001c0: f955 c9be 2f7d bfbd 56eb d0be b8e5 32c0
000001d0: 937d a53d 8e67 0fbe 5afa fabd e285 64bd
000001e0: 978c 2a3f 48e2 b9bf 08ec 16c0 eec0 0dc0
000001f0: be38 a7be c164 c3bf 2db8 013e d4ee d13e
00000200: 165e d8bf 7767 cd3e 7997 03c0 dedb f9be
00000210: d194 6b3e 90c5 bbbe 9c93 10be a46c 023f
00000220: 81a1 55bf 2f71 173f 3fc9 8e3f 8386 12c0
00000230: fe37 203e 0585 e1bf a5b8 dfbd f1e1 e2be
00000240: 9a12 0dc0 8426 cf3e dec5 e83e 5af1 08c0
00000250: feda 74be ed8f e6bd c5a1 7dbe 38b4 9e3e
00000260: 9dea ffbe 7fa6 813e a3d4 c4bf 7e79 c6bf
00000270: d607 993e c596 1dc0 1dc4 e3bc 3ed8 073f
00000280: e1b2 6f3e 23f5 39c0 fd5d 0bbf 61b7 f9be
00000290: 4516 a7be 5680 adbf e0ad edbd e6d3 4e3e
000002a0: b3fa 5e3e 0c08 15c0 1a2c 2b3e 171e 043f
000002b0: 5648 cc3d f6d9 293d 2498 82bd 1d7b 99bf
000002c0: 965d 52bf 6860 583f f099 03c0 deb9 9cbe
000002d0: 4d9e 88be 7942 e7be 1732 e03b be67 98be
000002e0: 791b 86be 6595 6cbf dcad d3bf a8aa dfbe
000002f0: d873 223e 697c 6dbe 9e84 653e c72b 173d
00000300: 3f95 06c0 f99b bdbf 0fd0 623f db41 08be
00000310: 041c 7d3e f203 d43e d352 23be 34ab 5439
00000320: 4200 46bf 462a 36bf 266a 0e3f 86ce 3fbf
00000330: f2d9 503e bc31 0d3f 4e6f 98be 4aa5 3fbf
00000340: 4e48 34c0 0e57 9ebd 7ecd 4ebe 8d5d d1be
00000350: fa41 47bc 659b 493f 746f 053e c829 823e
00000360: f7e9 1b3f 4351 a53e ed62 e4bf a87f 103e
00000370: 3361 43bb c797 6b3e b1c5 223e d641 09c0
00000380: f3f4 963e 06c8 6c3e e570 03c0 7a13 50bf
00000390: 61f5 d43d 5142 05c0 f961 e4bc caae 91be
000003a0: 8e30 bfbf 808d a63d ffe2 963e 936f 1bbf
000003b0: f559 5b3e 0c58 0cc0 5d90 ebbd 2fda af3e
000003c0: 8a75 19c0 708c aa3e beab 933e 458d e23e
000003d0: f65a ddbd 9802 d73d 8da8 10be bd95 a9be
000003e0: 5561 0bbe acd5 df3e c019 663e d57c 61bf
000003f0: 6716 55be 7210 a6bc 12af a13d 402e c6bf
-0.5655361 0.1933043 -0.03338712 0.0030768416 0.04017855 -1.0236067 -0.05846733 -0.7754413
-0.67197424 -0.72231406 -1.3798735 0.6896574 -0.086322986 0.6709755 -0.35289922 -0.6336367
-1.3001255 0.053876378 -0.70252186 -0.29602888 -0.12525079 0.4033584 0.17529283 -0.24149933
0.37850052 -0.6080666 0.6387427 -0.15213518 0.063001275 0.7599665 -0.10673019 -2.950649
0.002825771 -0.029845158 -2.3737729 -0.2096008 -0.023942191 0.5680083 0.3328308 -0.8501247
-2.2549217 -1.2532464 -2.397588 0.34612277 0.09051078 0.85055685 -0.31986883 0.7214397
0.42964447 0.13452928 0.21983151 -2.5207515 0.32813016 -1.7811747 -0.20041543 -0.8424075
1.0593078 -1.9236956 -0.61655843 0.8463833 -0.20100662 -1.4980822 -0.2537556 -1.7258536
-0.1056911 -1.1686953 0.49588948 -0.9611555 0.17138779 -1.0942221 0.20042187 -0.38964447
-0.47663894 -2.5525613 -0.25027102 -0.02998524 0.21314786 0.11720762 0.08596195 -0.032654777
-1.8669275 0.32762992 -2.2447314 0.7842748 0.11138666 0.64800125 -0.11894468 -0.10830099
0.49722144 -0.088353366 0.29982772 0.06294955 -0.0064832387 -0.9652808 0.16004486 -2.2263055
0.31560802 -2.2951837 0.8235372 -2.2667415 0.13600084 0.4474477 -0.30556598 -0.90947574
-1.6958281 -1.1141279 -0.42054844 -0.119842656 -0.16094136 -0.1657672 -0.007604518 0.45528698
-0.39323404 -0.09350049 -0.40804547 -2.795271 0.08080592 -0.14004347 -0.12254782 -0.055791743
0.66620773 -1.452218 -2.3581562 -2.2149005 -0.32660478 -1.5265123 0.12667914 0.41002524
-1.6903713 0.40118 -2.0561202 -0.48800558 0.23005988 -0.36674166 -0.14118809 0.5094702
-0.8344956 0.5915708 1.1155165 -2.28946 0.1564636 -1.7618719 -0.1092389 -0.44313005
-2.2042603 0.40459073 0.4546346 -2.139731 -0.23911664 -0.112579204 -0.24768741 0.3099687
-0.49983683 0.2532234 -1.5377392 -1.5505826 0.2988879 -2.4623272 -0.027803475 0.53064334
0.2340808 -2.905587 -0.5444029 -0.4877272 -0.32634178 -1.355479 -0.1160543 0.2019802
0.21775322 -2.3286161 0.16716042 0.51608413 0.099747345 0.04146763 -0.06376675 -1.1990696
-0.8217405 0.84522104 -2.0562706 -0.30610555 -0.26683274 -0.45167902 0.0068419087 -0.2976665
-0.26192835 -0.9241546 -1.6537433 -0.43684888 0.15864503 -0.2319199 0.2241387 0.036906984
-2.1028593 -1.4813224 0.8859872 -0.13306372 0.24717718 0.4140926 -0.15949564 0.00020281674
-0.77344143 -0.71158254 0.5563072 -0.74924505 0.2039564 0.55154014 -0.2977242 -0.74861586
-2.8169131 -0.07731448 -0.20195577 -0.40891686 -0.012161726 0.7875274 0.13030797 0.25422502
0.6090388 0.3228856 -1.784269 0.14111197 -0.0029812574 0.23007117 0.15895726 -2.1446433
0.29483756 0.23123178 -2.0537655 -0.8127972 0.10398365 -2.0821726 -0.027878748 -0.28453666
-1.4936693 0.08132458 0.2947006 -0.60717124 0.21421035 -2.192874 -0.115021445 0.34346148
-2.397799 0.3331027 0.28841966 0.44248405 -0.10808365 0.104985416 -0.14126797 -0.33122054
-0.13611348 0.43717706 0.2247076 -0.88081104 -0.20809327 -0.020271514 0.0789472 -1.5482864

l3.bias f4 [40]
00000000: b80b e4be 4c53 50be fd3b 04be b4ae e6be
00000010: 82f1 a1be 549e 91bd f3ff 843e 9e09 973e
00000020: db38 8f3e 4e38 d83d 16ec 45be ef19 d8bd
00000030: 6218 153f ea20 b4bb 5c22 323e 9d62 bc3e
00000040: f134 7b3e 4cce f53e 7317 183d 4e06 363e
00000050: 7da9 673e 0e3d 943e 2358 b8bc 641f 6c3d
00000060: 7fd4 efbd 305a 7ebe 5fc6 bcbe f231 af3e
00000070: 0466 d6be a240 603e 5e84 09bf c009 e0be
00000080: ecc6 343e a585 233e 87b3 9ebd aea6 90bc
00000090: 14de 0ebf acce 97be 9bf0 d53e cb53 e23e
-0.4454019 -0.20344275 -0.12913509 -0.45055163 -0.31629568 -0.07110277 0.25976524 0.29499525
0.27973065 0.10557614 -0.19328341 -0.105518214 0.5824033 -0.0054970877 0.1739592 0.36793986
0.24531914 0.48008955 0.037131738 0.17775843 0.22623248 0.2895283 -0.022502964 0.057647124
-0.11710452 -0.24839091 -0.36870095 0.34217793 -0.41874707 0.21899655 -0.537176 -0.4375744
0.17654008 0.1596895 -0.07749086 -0.017657604 -0.55807614 -0.29649866 0.4178513 0.44204554
