chatbot/data2.pth (torch, 27071 bytes, 6 tensors)

l1.weight f4 [8, 494]
0	0x3eab5e52	0.33470398
1	0x3ef93f71	0.48681214
2	0x3ee97393	0.4559599
3	0xbdec1e42	-0.11529209
4	0xbe6673c6	-0.22505102
5	0x3e0f6257	0.14002357
6	0xbe007543	-0.12544732
7	0x3e1e6eb2	0.15471914
8	0x3ea3867c	0.3193854
9	0x3e85e924	0.26154435
10	0x3eafa49c	0.34305274
11	0x3e5a039a	0.21290436
12	0x3e8c5704	0.27410138
13	0xbd758528	-0.05994144
14	0x3e63d7ee	0.2225034
15	0x3d3132d0	0.04326135
16	0xbdefb7d6	-0.11704986
17	0x3e496447	0.19667159
18	0xbebbcba0	-0.3667879
19	0x3f991832	1.1960509
20	0x3f0607dc	0.5235574
21	0x3f16eff9	0.5895992
22	0x3ed7173c	0.42009914
23	0x3eb140e1	0.3461981
24	0x3e36ad86	0.17839631
25	0xbd848d07	-0.06472211
26	0xbe3e17e0	-0.18563795
27	0x3dbc72dc	0.09201595
28	0x3e1e2a69	0.15445866
29	0x3d78785e	0.060661666
30	0x3e967a63	0.2939025
31	0x3ef4efe6	0.47839278
32	0x3edb61d3	0.4284807
33	0x3e59dc23	0.21275382
34	0xbe4ef343	-0.20209984
35	0x3e7b131a	0.24519005
36	0x3e864b6e	0.26229423
37	0x3ec91c84	0.39279568
38	0xbd038668	-0.0321106
39	0x3e82bd69	0.25535133
40	0xbd9facf1	-0.07796658
41	0x3dfd0fbf	0.12356519
42	0xbe8354a4	-0.25650513
43	0xbcd6f364	-0.026239105
44	0x3ec08230	0.37599325
45	0x3f61a4ba	0.8814198
46	0x3f0a29de	0.53970134
47	0x3f8749e7	1.0569428
48	0x3d123999	0.03569946
49	0x3f2fb7d7	0.6863989
50	0x3eba2c69	0.36362007
51	0x3e0c1341	0.1367922
52	0x3e473f53	0.1945775
53	0xbe26314e	-0.16229746
54	0x3f0bbe1e	0.5458697
55	0xbd4f3404	-0.050586715
56	0x3e2cb1bd	0.16864677
57	0xbc50c22b	-0.012741606
58	0x3d51ae51	0.05119163
59	0x3eab2b25	0.33431354
60	0x3e3eb94c	0.18625373
61	0x3ee3e5f5	0.4451138
62	0xbe4ff1cb	-0.2030708
63	0x3e2fbdd4	0.17162257
64	0xbbf2a6d4	-0.0074051414
65	0xbcd7aac2	-0.02632654
66	0x3e846610	0.25859118
67	0x3e2df470	0.16987777
68	0x3e3962be	0.18104073
69	0x3e8842c4	0.26613438
70	0x3e1d260d	0.15346546
71	0xbd034dce	-0.032056622
72	0x3e7d0a44	0.24710947
73	0x3e101cb3	0.14073448
74	0x3c98924f	0.018624453
75	0x3e870150	0.2636819
76	0x3e6f3896	0.2336143
77	0x3e8101f2	0.25196797
78	0x3f67e797	0.90587753
79	0x3f14d749	0.58141
80	0xbd2a36d4	-0.041556194
81	0x3fb8550b	1.4400953
82	0x3e5da3cd	0.21644516
83	0xbe44ec2e	-0.1923072
84	0x3f70a67b	0.9400403
85	0x3e4284c1	0.18995954
86	0x3cd32946	0.025776517
87	0x3e6a8eca	0.22906032
88	0x3f078e71	0.52951723
89	0x3ec4b817	0.384217
90	0x3f031599	0.5120483
91	0x3eb129d7	0.34602234
92	0x3f1f6846	0.62268484
93	0xbd8e6bb1	-0.06954134
94	0xbefffb2a	-0.4999631
95	0xbe534ac6	-0.20633993
96	0x3e181f12	0.14855602
97	0x3eb77abc	0.35835826
98	0x3ec01b98	0.37521052
99	0x3da46060	0.080261946
100	0x3d969d2e	0.073541984
101	0xbe9379ab	-0.28803763
102	0xbcbe239e	-0.023210343
103	0x3cf3bf9a	0.029754449
104	0xbc804a92	-0.015660558
105	0x3ebb7cbf	0.3661861
106	0xbde5122b	-0.11185106
107	0xbd2d799f	-0.042352315
108	0x3d1e4a70	0.038645208
109	0xbd46387d	-0.048393715
110	0x3ee3993e	0.44452852
111	0xbcb0cbf3	-0.021581626
112	0x3f017678	0.50571394
113	0x3f00693d	0.5016058
114	0x3e00f4c4	0.1259337
115	0x3e82925e	0.25502294
116	0x3d921726	0.071333215
117	0x3eacb596	0.3373229
118	0x3e633236	0.22187123
119	0x3e7d089d	0.24710317
120	0x3e6123a9	0.2198626
121	0x3ddcf2b4	0.107884794
122	0xbef36dc0	-0.4754467
123	0x3f0cd02d	0.5500515
124	0x3e4d606b	0.20056312
125	0xbca3ba27	-0.019986225
126	0x3e833b5f	0.25631234
127	0x3d99ea5f	0.07515406
128	0xbc9b31c6	-0.018944632
129	0x3ee82113	0.45337734
130	0x3f907cff	1.1288146
131	0xbe2ae78e	-0.16689894
132	0xbe3d3689	-0.18477835
133	0xbec28843	-0.37994584
134	0x3e7ca718	0.24673116
135	0x3ea2c42f	0.317903
136	0x3ebd874a	0.3701728
137	0x3ce8a6f8	0.02839993
138	0x3e0ceaf7	0.13761507
139	0x3f1372bd	0.5759695
140	0x3e4ddd8b	0.20104043
141	0x3f27be11	0.65524393
142	0x3e908ffa	0.28234845
143	0x3e06e8c4	0.1317473
144	0xbd891841	-0.06694079
145	0xbea67883	-0.32513818
146	0x3cb2e155	0.021835962
147	0x3ebbb776	0.36663407
148	0x3e9bf4cc	0.30460203
149	0x3e942ae2	0.28938967
150	0x3e597564	0.21236187
151	0x3daa3716	0.08311288
152	0x3f4fdf39	0.81199986
153	0xbe086f34	-0.1332367
154	0x3f98afc9	1.1928645
155	0x3e16fd58	0.1474508
156	0x3e9a6862	0.30157763
157	0x3f16efdf	0.58959764
158	0x3dd57416	0.10422532
159	0x3d986ab9	0.07442231
160	0xbd8adf8e	-0.06780921
161	0xbec1fa5c	-0.37886322
162	0x3e8eccdb	0.27890667
163	0xbe07e447	-0.13270675
164	0x3eb8893e	0.36042207
165	0x3e0facd6	0.14030775
166	0xbdd8869c	-0.1057255
167	0xbea3abf4	-0.31967127
168	0x3f8527b0	1.0402737
169	0x3eb5e7a8	0.35528302
170	0x3e846cf2	0.2586437
171	0xbed1ecef	-0.41001078
172	0xbd1761b3	-0.036958408
173	0x3ef0f045	0.4705831
174	0x3d3d6396	0.04623755
175	0xbfa976df	-1.3239402
176	0xbec7f18a	-0.39051467
177	0x3e3baa68	0.18326724
178	0xbe0442e9	-0.12916149
179	0x3f037c1e	0.5136126
180	0x3f9b9256	1.2154033
181	0x3eeb48d4	0.45954
182	0x3e8e50d0	0.2779603
183	0x3d4adfd8	0.04952988
184	0x3faebb16	1.3650844
185	0x3f407fd3	0.75195044
186	0x3eabde8b	0.33568224
187	0xbea4e4f5	-0.3220593
188	0xbfaf8876	-1.371352
189	0xbe15baef	-0.14622091
190	0x3cdc9c8a	0.026930112
191	0xbd467b69	-0.048457537
192	0x3eff8dcf	0.4991288
193	0x3dd9a400	0.10626984
194	0xbe3633f2	-0.17793253
195	0x39f6d68b	0.00047080623
196	0x3dc77d49	0.09740693
197	0xbf7f7cf1	-0.9980002
198	0x3f16db11	0.5892802
199	0x3e884efb	0.26622757
200	0xbe550181	-0.20801355
201	0xbd8fd794	-0.0702354
202	0x3e907e95	0.28221574
203	0x3ef0a91f	0.4700403
204	0xbd38a154	-0.04507573
205	0xbcbd3f27	-0.023101402
206	0x3d9a173c	0.07523963
207	0xbdb06aec	-0.08614144
208	0xbef60116	-0.48047704
209	0x3fcece07	1.6156625
210	0x3f027369	0.5095735
211	0x3ed8ab97	0.42318413
212	0xbe7e0db0	-0.24809909
213	0x3d70f83a	0.058830477
214	0x3f6f14e3	0.93391246
215	0xbec7c162	-0.39014727
216	0x3f6da926	0.92836225
217	0x3e4462a2	0.1917825
218	0x3ea4fcd2	0.32224137
219	0x3eaf2360	0.34206676
220	0x3f817536	1.0113895
221	0x3ed1c2e7	0.4096901
222	0x3ec005a1	0.37504295
223	0x3ce0db27	0.02744825
224	0x3e71ca4c	0.23612326
225	0x3f53bffc	0.8271482
226	0x3f17befe	0.59275806
227	0x3e5fdb4d	0.21861
228	0x3e782694	0.24233466
229	0x3eccd359	0.40004995
230	0x3f36f931	0.71473986
231	0x3f238973	0.63881606
232	0xbe2c6378	-0.1683482
233	0x3eabdcfc	0.33567035
234	0x3e85384d	0.26019517
235	0x3cf62ddc	0.030051164
236	0x3e764644	0.24050242
237	0x3f62a702	0.88536084
238	0x3d5ad130	0.053422153
239	0x3fcd08af	1.6018275
240	0x3f97071f	1.1799048
241	0x3f28a938	0.6588321
242	0x3e84e0e2	0.25952822
243	0x3e98d213	0.29847774
244	0x3ebc24e2	0.3674689
245	0xbd618a44	-0.0550635
246	0x3e859c3f	0.2609577
247	0x3f7c598e	0.9857415
248	0x3cd94ac8	0.026524916
249	0x3e4d4926	0.20047435
250	0x3e83b303	0.25722513
251	0x3ee2ce91	0.44298223
252	0xbe02491a	-0.12723199
253	0x3eb8fd69	0.36130837
254	0xbd85b1fb	-0.06528088
255	0xbdd5689a	-0.10420342

l1.bias f4 [8]
0	0x3fb21adf	1.391445
1	0x3faa35dc	1.3297687
2	0x3fd9ea55	1.7024637
3	0x3fdeee94	1.7416558
4	0x3fb9ba7e	1.4510038
5	0x401ca606	2.4476333
6	0x3fa98233	1.3242859
7	0x3fa99e01	1.3251344

l2.weight f4 [8, 8]
0	0x4014af3e	2.323196
1	0x3fa9ffda	1.3281205
2	0x3f615e40	0.8803444
3	0xbf337b30	-0.70109844
4	0x3f9f9108	1.2466135
5	0x3f8ebb1f	1.1150855
6	0x3fd927d3	1.6965278
7	0xbf5ff3ca	-0.8748137
8	0x3fe374f5	1.7770067
9	0x3ec725eb	0.38896117
10	0x3fa1e773	1.2648758
11	0x3f4bc423	0.79596156
12	0x3f2f87af	0.6856641
13	0xbcb0e840	-0.02159512
14	0x40335a54	2.8023882
15	0x402aba44	2.6676188
16	0xbef7d6a5	-0.48405948
17	0x3ebcae8d	0.36851922
18	0x401cb824	2.448739
19	0x3fb498e1	1.4109155
20	0x3f4b01bd	0.7929953
21	0x3fa30a0c	1.2737441
22	0xbf668043	-0.9003946
23	0x402c9ff2	2.6972623
24	0x3fdf0dff	1.7426146
25	0x3fe0d78b	1.7565778
26	0x40297085	2.6474926
27	0xbf870093	-1.054705
28	0x3e018da6	0.12651691
29	0x3f2b2f8e	0.6686944
30	0xbf0f02f3	-0.55863875
31	0x3ef4f851	0.478457
32	0xbf306606	-0.68905675
33	0x403d35c1	2.9564059
34	0x3fecdf64	1.8505673
35	0x4034cb58	2.824911
36	0x3f9980da	1.1992447
37	0x3f07e06c	0.53076816
38	0x3fc5a4e2	1.5440943
39	0xbf7e5c27	-0.99359363
40	0xbe83265e	-0.2561521
41	0xbf6e8368	-0.9316926
42	0x3fe6658e	1.7999742
43	0xbcb9f0e2	-0.02269787
44	0x40291d12	2.6423993
45	0x400f086e	2.2348895
46	0x403f6510	2.9905434
47	0x3f9b1be9	1.2117893
48	0x403e398d	2.9722626
49	0x3fe09a08	1.7547007
50	0xbeebdb8a	-0.46065933
51	0x400482b5	2.0704777
52	0xbf50907c	-0.81470466
53	0x401fe582	2.498383
54	0xbf8af412	-1.0855734
55	0x3f44d7f5	0.76892024
56	0x3f8b0c0a	1.0863049
57	0xbf5b601a	-0.85693514
58	0xbf1efe77	-0.6210703
59	0x3f10ed4d	0.5661209
60	0x40126154	2.2871904
61	0x3fe4e448	1.7882166
62	0x3ed6dcb3	0.41965255
63	0xbf7ea0e5	-0.99464256

l2.bias f4 [8]
0	0x3e98161c	0.29704368
1	0x3f28adee	0.65890396
2	0x3f497b04	0.7870333
3	0xbd9e6c50	-0.07735503
4	0x3ec4cb51	0.38436368
5	0x3e5ee42b	0.21766727
6	0x3f87ceec	1.0610023
7	0x3f7e62ac	0.9936931

l3.weight f4 [40, 8]
0	0xc03d73cc	-2.9601927
1	0x3f69b04a	0.9128462
2	0x3f3ef5ed	0.74594
3	0x3dbdf110	0.09274495
4	0xbffb4989	-1.9631816
5	0xbf32622c	-0.6968105
6	0xbf103e49	-0.5634504
7	0xc010c6c0	-2.2621307
8	0xbfc0a6fd	-1.5050961
9	0xbf271b5b	-0.65276116
10	0xbed7f319	-0.42177656
11	0xbedd0415	-0.43167177
12	0x3f563614	0.83676267
13	0xbf1097f5	-0.5648187
14	0xbfa45237	-1.283759
15	0xc0040965	-2.0630734
16	0xbf02941e	-0.5100726
17	0xbec40f32	-0.38292843
18	0xbeaa397c	-0.33246982
19	0x3e3efc9a	0.18651047
20	0xbf48245b	-0.78180474
21	0xbf09b0e0	-0.53785515
22	0xbfbcb492	-1.4742606
23	0xbfa9fecc	-1.3280883
24	0x3ea615d8	0.3243854
25	0xbf737e76	-0.9511484
26	0xc02ad2e9	-2.669123
27	0x3e5eeb28	0.21769392
28	0x3e095952	0.13412979
29	0xc00ea606	-2.2288833
30	0x3f12193a	0.5706974
31	0xbe640b7d	-0.22270007
32	0xbfcff09c	-1.6245303
33	0x3e7ba4f9	0.24574651
34	0x3efc153e	0.49234957
35	0x3e5c3ef9	0.21508397
36	0xc01bc5d5	-2.4339497
37	0x3ed3d462	0.41372973
38	0xbfecd1cd	-1.8501526
39	0xbfdf5b73	-1.7449783
40	0x3e67acac	0.22624463
41	0xbf510e55	-0.81662494
42	0xbff2bf8d	-1.8964707
43	0xc01b0b9b	-2.4225833
44	0xbeec0eef	-0.46105143
45	0x3f2e6859	0.6812797
46	0xc009cdf2	-2.153195
47	0x3ed8dcc1	0.42355922
48	0x3e383592	0.17989185
49	0xbedcf166	-0.43152922
50	0xc033a4c1	-2.8069308
51	0xbf080601	-0.5313416
52	0xbf9d56fe	-1.2292173
53	0xbfa0a803	-1.2551273
54	0x3f1d3a05	0.61416656
55	0x3f121c03	0.5707399
56	0xc0736faa	-3.8036904
57	0xbed805e6	-0.42192
58	0x3d49142b	0.0490915
59	0xbf5c18cf	-0.85975355
60	0xbeceabcf	-0.40365455
61	0xbcdb69db	-0.026783874
62	0x3ee71ac5	0.4513761
63	0xbfb13e24	-1.3847089
64	0xbfb09ad6	-1.3797252
65	0xbfe073df	-1.7535361
66	0x3dcb30c5	0.099214114
67	0x3e3e01ab	0.18555324
68	0xbf472fbb	-0.77807206
69	0xbf002379	-0.50054127
70	0x3e0e1ec8	0.1387893
71	0xbf4605ff	-0.773529
72	0xbfd9674b	-1.6984648
73	0xbf10f50e	-0.56623924
74	0xbdcfa297	-0.101384334
75	0xbe0c624f	-0.13709377
76	0x3f1c7165	0.61110526
77	0xc01b963b	-2.4310443
78	0x3e738707	0.23781978
79	0xbfb94ef7	-1.4477223
80	0xc00629f3	-2.0963104
81	0xbf2d9962	-0.6781217
82	0x3f1d7d50	0.61519337
83	0x3eb256b8	0.34831786
84	0xbefc8be4	-0.49325478
85	0xbf334bd5	-0.70037585
86	0xbecfdfac	-0.40600336
87	0xc0423522	-3.034493
88	0xbf42895a	-0.7599083
89	0x3e9ce479	0.3064306
90	0xbfd7f43c	-1.687141
91	0xbf90b280	-1.1304474
92	0x3d7299d6	0.05922874
93	0xbff7de36	-1.9364688
94	0x3e1ba938	0.1520127
95	0xbea884ae	-0.32913727
96	0x3f43765f	0.76352495
97	0xbf783d26	-0.96968305
98	0xbf90157c	-1.1256557
99	0x3f3e511f	0.7434253
100	0xbfeb2072	-1.8369277
101	0xc0158ebc	-2.3368368
102	0x3ecaf6e5	0.3964149
103	0x3d840681	0.06446553
104	0xbeb1f577	-0.34757587
105	0xc048809a	-3.1328492
106	0xbe73278c	-0.23745555
107	0xc0208351	-2.508015
108	0xbdd93c5f	-0.10607218
109	0xbe5db2ae	-0.21650192
110	0x3dd13e41	0.10216952
111	0x3f7c3255	0.985143
112	0xbe0b3c98	-0.13597333
113	0x3e3b78d7	0.18307815
114	0xc01b5966	-2.4273314
115	0xbed1c7c0	-0.4097271
116	0xbfe65348	-1.7994165
117	0x3ea7d9c4	0.3278333
118	0xbfd25eae	-1.6435144
119	0x3ebed510	0.3727193
120	0xbd1faf5c	-0.038985595
121	0xbfa3bd15	-1.2792078
122	0xbf5eac74	-0.8698189
123	0xbef37e4e	-0.475573
124	0xbe6531f0	-0.22382331
125	0xbcb323d4	-0.02186767
126	0xc0100004	-2.250001
127	0x3e5c8a57	0.21537147
128	0x3eaee34b	0.34157786
129	0xbfbdf6eb	-1.4840978
130	0xc0216b8b	-2.522189
131	0x3e0464cc	0.12929076
132	0xbf3cdb80	-0.7377243
133	0xbea26ddc	-0.3172444
134	0xbee2d61b	-0.44303975
135	0x3e8494b6	0.25894707
136	0xbf87bd9e	-1.0604742
137	0xbe59abdd	-0.21256967
138	0xbcac3796	-0.0210226
139	0xc01446a2	-2.316811
140	0xbfb95800	-1.447998
141	0x3eec2600	0.46122742
142	0xbfedf1f6	-1.8589466
143	0x3eeee101	0.4665604
144	0x3db77faa	0.08959897
145	0xbfc18102	-1.5117495
146	0xbf75e2d9	-0.9604927
147	0x3ec51f06	0.38500232
148	0xbf1c9065	-0.6115783
149	0xbf914b41	-1.1351091
150	0xbe1ec5d6	-0.15505156
151	0xbf016f17	-0.50560135
152	0xbfdd0492	-1.726702
153	0xbe906a00	-0.28205872
154	0x3eb837c9	0.3598006
155	0xbf6ac895	-0.91712314
156	0x3d934e5b	0.071926795
157	0xbe5362f3	-0.20643215
158	0xc03c23ce	-2.9396853
159	0xbd7ee611	-0.062231127
160	0xbea22297	-0.31667015
161	0xbfb90d1e	-1.4457128
162	0xbfd78078	-1.683608
163	0xbf995612	-1.1979392
164	0xbd563b1c	-0.052302465
165	0xbf04963b	-0.51791734
166	0x3e1cc2bb	0.15308659
167	0x3ce5d958	0.02805774
168	0xbf1145b8	-0.5674701
169	0xbf91dc78	-1.1395407
170	0xbdb3c469	-0.08777697
171	0xbeba3cf1	-0.3637462
172	0xc02509b6	-2.5787177
173	0xbf4938c6	-0.78602254
174	0x3f11441b	0.56744546
175	0x3edcbd82	0.43113333
176	0xc04c4097	-3.1914423
177	0x3e3dbb1b	0.18528406
178	0x3ed44de7	0.41465685
179	0xbefc1ed9	-0.49242285
180	0xbecc69f9	-0.399246
181	0x3e5651a2	0.20929578
182	0xbfbedd31	-1.4911252
183	0xc00fe624	-2.2484217
184	0xc00ef870	-2.2339134
185	0xbf7b3795	-0.98131686
186	0x3e324151	0.17407729
187	0xbfb81d87	-1.4384011
188	0xbf960266	-1.1719482
189	0xbe2b6ef1	-0.1674154
190	0x3d605c6c	0.05477564
191	0x3f10ebe3	0.56609935
192	0xc01a51cb	-2.4112422
193	0xc026bce4	-2.605279
194	0x3e828fc3	0.25500306
195	0xbf96a5c6	-1.176934
196	0x3ed848c6	0.42243022
197	0xbf094d23	-0.53633326
198	0x3ec2629c	0.37965858
199	0x3e624944	0.22098261
200	0xbf19221d	-0.5981768
201	0xc00a36d9	-2.1595976
202	0xbf02365e	-0.5086421
203	0xbd8181b0	-0.06323564
204	0x3f19d494	0.60089993
205	0xbf984036	-1.1894596
206	0xbeabc68f	-0.33549926
207	0xbe75e3ef	-0.24012731
208	0xbf29a684	-0.6626971
209	0xc01a8cdc	-2.4148474
210	0xbeb7c3ca	-0.35891563
211	0xbf04a5fa	-0.5181576
212	0x3f10b21a	0.5652176
213	0xc0162f4b	-2.3466365
214	0x3f2cdb49	0.675221
215	0x3e69d90f	0.22836708
216	0xc04a8652	-3.1644483
217	0x3f40af78	0.75267744
218	0x3ee80289	0.45314434
219	0xc02e91e2	-2.727654
220	0x3ec2ec79	0.3807104
221	0xbfdb8a29	-1.7151538
222	0x3eb28f98	0.34875178
223	0xc01542a0	-2.3321915
224	0xbf1b726b	-0.6072146
225	0xbde1d22c	-0.11026415
226	0xbee106d8	-0.43950534
227	0xbee07180	-0.43836594
228	0xbf995a78	-1.1980734
229	0x3ed1a709	0.4094775
230	0xc0315647	-2.770891
231	0xbf34a6e8	-0.7056718
232	0xbe84f04a	-0.25964576
233	0xbef46127	-0.4773037
234	0xbfa17991	-1.2615224
235	0x3ea4a671	0.32158235
236	0xc0127498	-2.2883663
237	0xbec7c7f7	-0.3901975
238	0xbeb62088	-0.35571694
239	0x3e01f7b2	0.12692145
240	0xbf1e28b2	-0.61780846
241	0xbe40f325	-0.18842752
242	0xbf21bbb9	-0.6317707
243	0x3e9ac6c8	0.30229783
244	0xbf2485db	-0.6426675
245	0xbfd6dcf5	-1.6786181
246	0x3e4ec887	0.20193683
247	0xc002f493	-2.0461776
248	0xbeebe413	-0.46072444
249	0xbf1de44a	-0.61676466
250	0xbef890cd	-0.48547974
251	0xbeb6bcff	-0.35691068
252	0xbec47938	-0.38373733
253	0xc03876ce	-2.8822513
254	0x3f2220f5	0.6333154
255	0x3d0b1034	0.033951

l3.bias f4 [40]
0	0x3ee22fc1	0.44177058
1	0xbe745f55	-0.23864491
2	0x3d2ad535	0.041707236
3	0xbe0ce428	-0.1375891
4	0x3ea45d14	0.32102263
5	0xbd4e3fd1	-0.05035383
6	0x3ec67c18	0.3876655
7	0x3e958da7	0.29209635
8	0xbd30365f	-0.043020602
9	0xbd5bc907	-0.05365851
10	0xbde98a0e	-0.11403285
11	0x3e863f69	0.26220253
12	0xbea495ea	-0.32145625
13	0x3e58a4cd	0.21156617
14	0x3e1bea92	0.152262
15	0x3df2ff4d	0.11865101
16	0xbeb77d49	-0.35837772
17	0x3e80a452	0.25125366
18	0xbea1cedb	-0.3160313
19	0x3ea46fd8	0.3211658
20	0xbe143a39	-0.14475335
21	0x3dc5510d	0.096346
22	0xbe858dce	-0.2608475
23	0x3d00cd88	0.03144601
24	0xbed326c3	-0.4124051
25	0xbe617291	-0.2201636
26	0xbdf6ada7	-0.1204484
27	0x3e721eaf	0.23644517
28	0xbf0e84b6	-0.5567125
29	0xbf075b60	-0.528738
30	0xbe0f91df	-0.14020489
31	0x3ca17b16	0.019712012
32	0xbd180bb0	-0.03712052
33	0x3e08d3f6	0.13362107
34	0xbf4168ef	-0.7555074
35	0xbdd79f52	-0.10528435
36	0x3e200498	0.15626752
37	0xbe9b3172	-0.3031116
38	0xbeecd2cc	-0.46254575
39	0xbe651850	-0.22372556
